…
2025-07-10 03:21:16,883 INFO: Training statistics:
	Number of train images: 153600
	Dataset enlarge ratio: 1
	Batch size per gpu: 8
	World size (gpu number): 2
	Require iter number per epoch: 9600
	Total epochs: 21; iters: 200000.
2025-07-10 03:21:16,960 INFO: Network [MIMOUNet] is created.
2025-07-10 03:21:18,263 INFO: Network: DistributedDataParallel - MIMOUNet, with parameters: 6,592,995
2025-07-10 03:21:18,263 INFO: MIMOUNet(
  (Encoder): ModuleList(
    (0): EBlock(
      (layers): Sequential(
        (0): ResBlock(
          (main): Sequential(
            (0): BasicConv(
              (main): Sequential(
                (0): Conv2d(32, 32, kernel_size=(3, 3), stride=(1, 1), padding=(1, 1))
                (1): ReLU(inplace=True)
              )
            )
            (1): BasicConv(
              (main): Sequential(
                (0): Conv2d(32, 32, kernel_size=(3, 3), stride=(1, 1), padding=(1, 1))
              )
            )
          )
        )
        (1): ResBlock(
          (main): Sequential(
            (0): BasicConv(
              (main): Sequential(
                (0): Conv2d(32, 32, kernel_size=(3, 3), stride=(1, 1), padding=(1, 1))
                (1): ReLU(inplace=True)
              )
            )
            (1): BasicConv(
              (main): Sequential(
                (0): Conv2d(32, 32, kernel_size=(3, 3), stride=(1, 1), padding=(1, 1))
              )
            )
          )
        )
        (2): ResBlock(
          (main): Sequential(
            (0): BasicConv(
              (main): Sequential(
                (0): Conv2d(32, 32, kernel_size=(3, 3), stride=(1, 1), padding=(1, 1))
                (1): ReLU(inplace=True)
              )
            )
            (1): BasicConv(
              (main): Sequential(
                (0): Conv2d(32, 32, kernel_size=(3, 3), stride=(1, 1), padding=(1, 1))
              )
            )
          )
        )
        (3): ResBlock(
          (main): Sequential(
            (0): BasicConv(
              (main): Sequential(
                (0): Conv2d(32, 32, kernel_size=(3, 3), stride=(1, 1), padding=(1, 1))
                (1): ReLU(inplace=True)
              )
            )
            (1): BasicConv(
              (main): Sequential(
                (0): Conv2d(32, 32, kernel_size=(3, 3), stride=(1, 1), padding=(1, 1))
              )
            )
          )
        )
        (4): ResBlock(
          (main): Sequential(
            (0): BasicConv(
              (main): Sequential(
                (0): Conv2d(32, 32, kernel_size=(3, 3), stride=(1, 1), padding=(1, 1))
                (1): ReLU(inplace=True)
              )
            )
            (1): BasicConv(
              (main): Sequential(
                (0): Conv2d(32, 32, kernel_size=(3, 3), stride=(1, 1), padding=(1, 1))
              )
            )
          )
        )
        (5): ResBlock(
          (main): Sequential(
            (0): BasicConv(
              (main): Sequential(
                (0): Conv2d(32, 32, kernel_size=(3, 3), stride=(1, 1), padding=(1, 1))
                (1): ReLU(inplace=True)
              )
            )
            (1): BasicConv(
              (main): Sequential(
                (0): Conv2d(32, 32, kernel_size=(3, 3), stride=(1, 1), padding=(1, 1))
              )
            )
          )
        )
        (6): ResBlock(
          (main): Sequential(
            (0): BasicConv(
              (main): Sequential(
                (0): Conv2d(32, 32, kernel_size=(3, 3), stride=(1, 1), padding=(1, 1))
                (1): ReLU(inplace=True)
              )
            )
            (1): BasicConv(
              (main): Sequential(
                (0): Conv2d(32, 32, kernel_size=(3, 3), stride=(1, 1), padding=(1, 1))
              )
            )
          )
        )
        (7): ResBlock(
          (main): Sequential(
            (0): BasicConv(
              (main): Sequential(
                (0): Conv2d(32, 32, kernel_size=(3, 3), stride=(1, 1), padding=(1, 1))
                (1): ReLU(inplace=True)
              )
            )
            (1): BasicConv(
              (main): Sequential(
                (0): Conv2d(32, 32, kernel_size=(3, 3), stride=(1, 1), padding=(1, 1))
              )
            )
          )
        )
      )
    )
    (1): EBlock(
      (layers): Sequential(
        (0): ResBlock(
          (main): Sequential(
            (0): BasicConv(
              (main): Sequential(
                (0): Conv2d(64, 64, kernel_size=(3, 3), stride=(1, 1), padding=(1, 1))
                (1): ReLU(inplace=True)
              )
            )
            (1): BasicConv(
              (main): Sequential(
                (0): Conv2d(64, 64, kernel_size=(3, 3), stride=(1, 1), padding=(1, 1))
              )
            )
          )
        )
        (1): ResBlock(
          (main): Sequential(
            (0): BasicConv(
              (main): Sequential(
                (0): Conv2d(64, 64, kernel_size=(3, 3), stride=(1, 1), padding=(1, 1))
                (1): ReLU(inplace=True)
              )
            )
            (1): BasicConv(
              (main): Sequential(
                (0): Conv2d(64, 64, kernel_size=(3, 3), stride=(1, 1), padding=(1, 1))
              )
            )
          )
        )
        (2): ResBlock(
          (main): Sequential(
            (0): BasicConv(
              (main): Sequential(
                (0): Conv2d(64, 64, kernel_size=(3, 3), stride=(1, 1), padding=(1, 1))
                (1): ReLU(inplace=True)
              )
            )
            (1): BasicConv(
              (main): Sequential(
                (0): Conv2d(64, 64, kernel_size=(3, 3), stride=(1, 1), padding=(1, 1))
              )
            )
          )
        )
        (3): ResBlock(
          (main): Sequential(
            (0): BasicConv(
              (main): Sequential(
                (0): Conv2d(64, 64, kernel_size=(3, 3), stride=(1, 1), padding=(1, 1))
                (1): ReLU(inplace=True)
              )
            )
            (1): BasicConv(
              (main): Sequential(
                (0): Conv2d(64, 64, kernel_size=(3, 3), stride=(1, 1), padding=(1, 1))
              )
            )
          )
        )
        (4): ResBlock(
          (main): Sequential(
            (0): BasicConv(
              (main): Sequential(
                (0): Conv2d(64, 64, kernel_size=(3, 3), stride=(1, 1), padding=(1, 1))
                (1): ReLU(inplace=True)
              )
            )
            (1): BasicConv(
              (main): Sequential(
                (0): Conv2d(64, 64, kernel_size=(3, 3), stride=(1, 1), padding=(1, 1))
              )
            )
          )
        )
        (5): ResBlock(
          (main): Sequential(
            (0): BasicConv(
              (main): Sequential(
                (0): Conv2d(64, 64, kernel_size=(3, 3), stride=(1, 1), padding=(1, 1))
                (1): ReLU(inplace=True)
              )
            )
            (1): BasicConv(
              (main): Sequential(
                (0): Conv2d(64, 64, kernel_size=(3, 3), stride=(1, 1), padding=(1, 1))
              )
            )
          )
        )
        (6): ResBlock(
          (main): Sequential(
            (0): BasicConv(
              (main): Sequential(
                (0): Conv2d(64, 64, kernel_size=(3, 3), stride=(1, 1), padding=(1, 1))
                (1): ReLU(inplace=True)
              )
            )
            (1): BasicConv(
              (main): Sequential(
                (0): Conv2d(64, 64, kernel_size=(3, 3), stride=(1, 1), padding=(1, 1))
              )
            )
          )
        )
        (7): ResBlock(
          (main): Sequential(
            (0): BasicConv(
              (main): Sequential(
                (0): Conv2d(64, 64, kernel_size=(3, 3), stride=(1, 1), padding=(1, 1))
                (1): ReLU(inplace=True)
              )
            )
            (1): BasicConv(
              (main): Sequential(
                (0): Conv2d(64, 64, kernel_size=(3, 3), stride=(1, 1), padding=(1, 1))
              )
            )
          )
        )
      )
    )
    (2): EBlock(
      (layers): Sequential(
        (0): ResBlock(
          (main): Sequential(
            (0): BasicConv(
              (main): Sequential(
                (0): Conv2d(128, 128, kernel_size=(3, 3), stride=(1, 1), padding=(1, 1))
                (1): ReLU(inplace=True)
              )
            )
            (1): BasicConv(
              (main): Sequential(
                (0): Conv2d(128, 128, kernel_size=(3, 3), stride=(1, 1), padding=(1, 1))
              )
            )
          )
        )
        (1): ResBlock(
          (main): Sequential(
            (0): BasicConv(
              (main): Sequential(
                (0): Conv2d(128, 128, kernel_size=(3, 3), stride=(1, 1), padding=(1, 1))
                (1): ReLU(inplace=True)
              )
            )
            (1): BasicConv(
              (main): Sequential(
                (0): Conv2d(128, 128, kernel_size=(3, 3), stride=(1, 1), padding=(1, 1))
              )
            )
          )
        )
        (2): ResBlock(
          (main): Sequential(
            (0): BasicConv(
              (main): Sequential(
                (0): Conv2d(128, 128, kernel_size=(3, 3), stride=(1, 1), padding=(1, 1))
                (1): ReLU(inplace=True)
              )
            )
            (1): BasicConv(
              (main): Sequential(
                (0): Conv2d(128, 128, kernel_size=(3, 3), stride=(1, 1), padding=(1, 1))
              )
            )
          )
        )
        (3): ResBlock(
          (main): Sequential(
            (0): BasicConv(
              (main): Sequential(
                (0): Conv2d(128, 128, kernel_size=(3, 3), stride=(1, 1), padding=(1, 1))
                (1): ReLU(inplace=True)
              )
            )
            (1): BasicConv(
              (main): Sequential(
                (0): Conv2d(128, 128, kernel_size=(3, 3), stride=(1, 1), padding=(1, 1))
              )
            )
          )
        )
        (4): ResBlock(
          (main): Sequential(
            (0): BasicConv(
              (main): Sequential(
                (0): Conv2d(128, 128, kernel_size=(3, 3), stride=(1, 1), padding=(1, 1))
                (1): ReLU(inplace=True)
              )
            )
            (1): BasicConv(
              (main): Sequential(
                (0): Conv2d(128, 128, kernel_size=(3, 3), stride=(1, 1), padding=(1, 1))
              )
            )
          )
        )
        (5): ResBlock(
          (main): Sequential(
            (0): BasicConv(
              (main): Sequential(
                (0): Conv2d(128, 128, kernel_size=(3, 3), stride=(1, 1), padding=(1, 1))
                (1): ReLU(inplace=True)
              )
            )
            (1): BasicConv(
              (main): Sequential(
                (0): Conv2d(128, 128, kernel_size=(3, 3), stride=(1, 1), padding=(1, 1))
              )
            )
          )
        )
        (6): ResBlock(
          (main): Sequential(
            (0): BasicConv(
              (main): Sequential(
                (0): Conv2d(128, 128, kernel_size=(3, 3), stride=(1, 1), padding=(1, 1))
                (1): ReLU(inplace=True)
              )
            )
            (1): BasicConv(
              (main): Sequential(
                (0): Conv2d(128, 128, kernel_size=(3, 3), stride=(1, 1), padding=(1, 1))
              )
            )
          )
        )
        (7): ResBlock(
          (main): Sequential(
            (0): BasicConv(
              (main): Sequential(
                (0): Conv2d(128, 128, kernel_size=(3, 3), stride=(1, 1), padding=(1, 1))
                (1): ReLU(inplace=True)
              )
            )
            (1): BasicConv(
              (main): Sequential(
                (0): Conv2d(128, 128, kernel_size=(3, 3), stride=(1, 1), padding=(1, 1))
              )
            )
          )
        )
      )
    )
  )
  (feat_extract): ModuleList(
    (0): BasicConv(
      (main): Sequential(
        (0): Conv2d(3, 32, kernel_size=(3, 3), stride=(1, 1), padding=(1, 1))
        (1): ReLU(inplace=True)
      )
    )
    (1): BasicConv(
      (main): Sequential(
        (0): Conv2d(32, 64, kernel_size=(3, 3), stride=(2, 2), padding=(1, 1))
        (1): ReLU(inplace=True)
      )
    )
    (2): BasicConv(
      (main): Sequential(
        (0): Conv2d(64, 128, kernel_size=(3, 3), stride=(2, 2), padding=(1, 1))
        (1): ReLU(inplace=True)
      )
    )
    (3): BasicConv(
      (main): Sequential(
        (0): ConvTranspose2d(128, 64, kernel_size=(4, 4), stride=(2, 2), padding=(1, 1))
        (1): ReLU(inplace=True)
      )
    )
    (4): BasicConv(
      (main): Sequential(
        (0): ConvTranspose2d(64, 32, kernel_size=(4, 4), stride=(2, 2), padding=(1, 1))
        (1): ReLU(inplace=True)
      )
    )
    (5): BasicConv(
      (main): Sequential(
        (0): Conv2d(32, 3, kernel_size=(3, 3), stride=(1, 1), padding=(1, 1))
      )
    )
  )
  (Decoder): ModuleList(
    (0): TransformerDBlock(
      (layers): Sequential(
        (0): TransformerBlock(
          (norm1): LayerNorm(
            (body): WithBias_LayerNorm()
          )
          (attn): Attention(
            (qkv): Conv2d(128, 384, kernel_size=(1, 1), stride=(1, 1), bias=False)
            (qkv_dwconv): Conv2d(384, 384, kernel_size=(3, 3), stride=(1, 1), padding=(1, 1), groups=384, bias=False)
            (project_out): Conv2d(128, 128, kernel_size=(1, 1), stride=(1, 1), bias=False)
            (relu): ReLU()
            (att_ca): Conv2d(16, 32, kernel_size=(1, 1), stride=(1, 1), bias=False)
          )
          (norm2): LayerNorm(
            (body): WithBias_LayerNorm()
          )
          (ffn): FeedForward(
            (partial_conv3): Conv2d(8, 8, kernel_size=(3, 3), stride=(1, 1), padding=(1, 1), groups=8, bias=False)
            (project_in): Conv2d(128, 1024, kernel_size=(1, 1), stride=(1, 1), bias=False)
            (dwconv): Conv2d(512, 512, kernel_size=(3, 3), stride=(1, 1), padding=(1, 1), groups=512, bias=False)
            (project_out): Conv2d(512, 128, kernel_size=(1, 1), stride=(1, 1), bias=False)
          )
        )
        (1): TransformerBlock(
          (norm1): LayerNorm(
            (body): WithBias_LayerNorm()
          )
          (attn): Attention(
            (qkv): Conv2d(128, 384, kernel_size=(1, 1), stride=(1, 1), bias=False)
            (qkv_dwconv): Conv2d(384, 384, kernel_size=(3, 3), stride=(1, 1), padding=(1, 1), groups=384, bias=False)
            (project_out): Conv2d(128, 128, kernel_size=(1, 1), stride=(1, 1), bias=False)
            (relu): ReLU()
            (att_ca): Conv2d(16, 32, kernel_size=(1, 1), stride=(1, 1), bias=False)
          )
          (norm2): LayerNorm(
            (body): WithBias_LayerNorm()
          )
          (ffn): FeedForward(
            (partial_conv3): Conv2d(8, 8, kernel_size=(3, 3), stride=(1, 1), padding=(1, 1), groups=8, bias=False)
            (project_in): Conv2d(128, 1024, kernel_size=(1, 1), stride=(1, 1), bias=False)
            (dwconv): Conv2d(512, 512, kernel_size=(3, 3), stride=(1, 1), padding=(1, 1), groups=512, bias=False)
            (project_out): Conv2d(512, 128, kernel_size=(1, 1), stride=(1, 1), bias=False)
          )
        )
        (2): TransformerBlock(
          (norm1): LayerNorm(
            (body): WithBias_LayerNorm()
          )
          (attn): Attention(
            (qkv): Conv2d(128, 384, kernel_size=(1, 1), stride=(1, 1), bias=False)
            (qkv_dwconv): Conv2d(384, 384, kernel_size=(3, 3), stride=(1, 1), padding=(1, 1), groups=384, bias=False)
            (project_out): Conv2d(128, 128, kernel_size=(1, 1), stride=(1, 1), bias=False)
            (relu): ReLU()
            (att_ca): Conv2d(16, 32, kernel_size=(1, 1), stride=(1, 1), bias=False)
          )
          (norm2): LayerNorm(
            (body): WithBias_LayerNorm()
          )
          (ffn): FeedForward(
            (partial_conv3): Conv2d(8, 8, kernel_size=(3, 3), stride=(1, 1), padding=(1, 1), groups=8, bias=False)
            (project_in): Conv2d(128, 1024, kernel_size=(1, 1), stride=(1, 1), bias=False)
            (dwconv): Conv2d(512, 512, kernel_size=(3, 3), stride=(1, 1), padding=(1, 1), groups=512, bias=False)
            (project_out): Conv2d(512, 128, kernel_size=(1, 1), stride=(1, 1), bias=False)
          )
        )
        (3): TransformerBlock(
          (norm1): LayerNorm(
            (body): WithBias_LayerNorm()
          )
          (attn): Attention(
            (qkv): Conv2d(128, 384, kernel_size=(1, 1), stride=(1, 1), bias=False)
            (qkv_dwconv): Conv2d(384, 384, kernel_size=(3, 3), stride=(1, 1), padding=(1, 1), groups=384, bias=False)
            (project_out): Conv2d(128, 128, kernel_size=(1, 1), stride=(1, 1), bias=False)
            (relu): ReLU()
            (att_ca): Conv2d(16, 32, kernel_size=(1, 1), stride=(1, 1), bias=False)
          )
          (norm2): LayerNorm(
            (body): WithBias_LayerNorm()
          )
          (ffn): FeedForward(
            (partial_conv3): Conv2d(8, 8, kernel_size=(3, 3), stride=(1, 1), padding=(1, 1), groups=8, bias=False)
            (project_in): Conv2d(128, 1024, kernel_size=(1, 1), stride=(1, 1), bias=False)
            (dwconv): Conv2d(512, 512, kernel_size=(3, 3), stride=(1, 1), padding=(1, 1), groups=512, bias=False)
            (project_out): Conv2d(512, 128, kernel_size=(1, 1), stride=(1, 1), bias=False)
          )
        )
        (4): TransformerBlock(
          (norm1): LayerNorm(
            (body): WithBias_LayerNorm()
          )
          (attn): Attention(
            (qkv): Conv2d(128, 384, kernel_size=(1, 1), stride=(1, 1), bias=False)
            (qkv_dwconv): Conv2d(384, 384, kernel_size=(3, 3), stride=(1, 1), padding=(1, 1), groups=384, bias=False)
            (project_out): Conv2d(128, 128, kernel_size=(1, 1), stride=(1, 1), bias=False)
            (relu): ReLU()
            (att_ca): Conv2d(16, 32, kernel_size=(1, 1), stride=(1, 1), bias=False)
          )
          (norm2): LayerNorm(
            (body): WithBias_LayerNorm()
          )
          (ffn): FeedForward(
            (partial_conv3): Conv2d(8, 8, kernel_size=(3, 3), stride=(1, 1), padding=(1, 1), groups=8, bias=False)
            (project_in): Conv2d(128, 1024, kernel_size=(1, 1), stride=(1, 1), bias=False)
            (dwconv): Conv2d(512, 512, kernel_size=(3, 3), stride=(1, 1), padding=(1, 1), groups=512, bias=False)
            (project_out): Conv2d(512, 128, kernel_size=(1, 1), stride=(1, 1), bias=False)
          )
        )
        (5): TransformerBlock(
          (norm1): LayerNorm(
            (body): WithBias_LayerNorm()
          )
          (attn): Attention(
            (qkv): Conv2d(128, 384, kernel_size=(1, 1), stride=(1, 1), bias=False)
            (qkv_dwconv): Conv2d(384, 384, kernel_size=(3, 3), stride=(1, 1), padding=(1, 1), groups=384, bias=False)
            (project_out): Conv2d(128, 128, kernel_size=(1, 1), stride=(1, 1), bias=False)
            (relu): ReLU()
            (att_ca): Conv2d(16, 32, kernel_size=(1, 1), stride=(1, 1), bias=False)
          )
          (norm2): LayerNorm(
            (body): WithBias_LayerNorm()
          )
          (ffn): FeedForward(
            (partial_conv3): Conv2d(8, 8, kernel_size=(3, 3), stride=(1, 1), padding=(1, 1), groups=8, bias=False)
            (project_in): Conv2d(128, 1024, kernel_size=(1, 1), stride=(1, 1), bias=False)
            (dwconv): Conv2d(512, 512, kernel_size=(3, 3), stride=(1, 1), padding=(1, 1), groups=512, bias=False)
            (project_out): Conv2d(512, 128, kernel_size=(1, 1), stride=(1, 1), bias=False)
          )
        )
        (6): TransformerBlock(
          (norm1): LayerNorm(
            (body): WithBias_LayerNorm()
          )
          (attn): Attention(
            (qkv): Conv2d(128, 384, kernel_size=(1, 1), stride=(1, 1), bias=False)
            (qkv_dwconv): Conv2d(384, 384, kernel_size=(3, 3), stride=(1, 1), padding=(1, 1), groups=384, bias=False)
            (project_out): Conv2d(128, 128, kernel_size=(1, 1), stride=(1, 1), bias=False)
            (relu): ReLU()
            (att_ca): Conv2d(16, 32, kernel_size=(1, 1), stride=(1, 1), bias=False)
          )
          (norm2): LayerNorm(
            (body): WithBias_LayerNorm()
          )
          (ffn): FeedForward(
            (partial_conv3): Conv2d(8, 8, kernel_size=(3, 3), stride=(1, 1), padding=(1, 1), groups=8, bias=False)
            (project_in): Conv2d(128, 1024, kernel_size=(1, 1), stride=(1, 1), bias=False)
            (dwconv): Conv2d(512, 512, kernel_size=(3, 3), stride=(1, 1), padding=(1, 1), groups=512, bias=False)
            (project_out): Conv2d(512, 128, kernel_size=(1, 1), stride=(1, 1), bias=False)
          )
        )
        (7): TransformerBlock(
          (norm1): LayerNorm(
            (body): WithBias_LayerNorm()
          )
          (attn): Attention(
            (qkv): Conv2d(128, 384, kernel_size=(1, 1), stride=(1, 1), bias=False)
            (qkv_dwconv): Conv2d(384, 384, kernel_size=(3, 3), stride=(1, 1), padding=(1, 1), groups=384, bias=False)
            (project_out): Conv2d(128, 128, kernel_size=(1, 1), stride=(1, 1), bias=False)
            (relu): ReLU()
            (att_ca): Conv2d(16, 32, kernel_size=(1, 1), stride=(1, 1), bias=False)
          )
          (norm2): LayerNorm(
            (body): WithBias_LayerNorm()
          )
          (ffn): FeedForward(
            (partial_conv3): Conv2d(8, 8, kernel_size=(3, 3), stride=(1, 1), padding=(1, 1), groups=8, bias=False)
            (project_in): Conv2d(128, 1024, kernel_size=(1, 1), stride=(1, 1), bias=False)
            (dwconv): Conv2d(512, 512, kernel_size=(3, 3), stride=(1, 1), padding=(1, 1), groups=512, bias=False)
            (project_out): Conv2d(512, 128, kernel_size=(1, 1), stride=(1, 1), bias=False)
          )
        )
      )
    )
    (1): TransformerDBlock(
      (layers): Sequential(
        (0): TransformerBlock(
          (norm1): LayerNorm(
            (body): WithBias_LayerNorm()
          )
          (attn): Attention(
            (qkv): Conv2d(64, 192, kernel_size=(1, 1), stride=(1, 1), bias=False)
            (qkv_dwconv): Conv2d(192, 192, kernel_size=(3, 3), stride=(1, 1), padding=(1, 1), groups=192, bias=False)
            (project_out): Conv2d(64, 64, kernel_size=(1, 1), stride=(1, 1), bias=False)
            (relu): ReLU()
            (att_ca): Conv2d(16, 32, kernel_size=(1, 1), stride=(1, 1), bias=False)
          )
          (norm2): LayerNorm(
            (body): WithBias_LayerNorm()
          )
          (ffn): FeedForward(
            (partial_conv3): Conv2d(4, 4, kernel_size=(3, 3), stride=(1, 1), padding=(1, 1), groups=4, bias=False)
            (project_in): Conv2d(64, 512, kernel_size=(1, 1), stride=(1, 1), bias=False)
            (dwconv): Conv2d(256, 256, kernel_size=(3, 3), stride=(1, 1), padding=(1, 1), groups=256, bias=False)
            (project_out): Conv2d(256, 64, kernel_size=(1, 1), stride=(1, 1), bias=False)
          )
        )
        (1): TransformerBlock(
          (norm1): LayerNorm(
            (body): WithBias_LayerNorm()
          )
          (attn): Attention(
            (qkv): Conv2d(64, 192, kernel_size=(1, 1), stride=(1, 1), bias=False)
            (qkv_dwconv): Conv2d(192, 192, kernel_size=(3, 3), stride=(1, 1), padding=(1, 1), groups=192, bias=False)
            (project_out): Conv2d(64, 64, kernel_size=(1, 1), stride=(1, 1), bias=False)
            (relu): ReLU()
            (att_ca): Conv2d(16, 32, kernel_size=(1, 1), stride=(1, 1), bias=False)
          )
          (norm2): LayerNorm(
            (body): WithBias_LayerNorm()
          )
          (ffn): FeedForward(
            (partial_conv3): Conv2d(4, 4, kernel_size=(3, 3), stride=(1, 1), padding=(1, 1), groups=4, bias=False)
            (project_in): Conv2d(64, 512, kernel_size=(1, 1), stride=(1, 1), bias=False)
            (dwconv): Conv2d(256, 256, kernel_size=(3, 3), stride=(1, 1), padding=(1, 1), groups=256, bias=False)
            (project_out): Conv2d(256, 64, kernel_size=(1, 1), stride=(1, 1), bias=False)
          )
        )
        (2): TransformerBlock(
          (norm1): LayerNorm(
            (body): WithBias_LayerNorm()
          )
          (attn): Attention(
            (qkv): Conv2d(64, 192, kernel_size=(1, 1), stride=(1, 1), bias=False)
            (qkv_dwconv): Conv2d(192, 192, kernel_size=(3, 3), stride=(1, 1), padding=(1, 1), groups=192, bias=False)
            (project_out): Conv2d(64, 64, kernel_size=(1, 1), stride=(1, 1), bias=False)
            (relu): ReLU()
            (att_ca): Conv2d(16, 32, kernel_size=(1, 1), stride=(1, 1), bias=False)
          )
          (norm2): LayerNorm(
            (body): WithBias_LayerNorm()
          )
          (ffn): FeedForward(
            (partial_conv3): Conv2d(4, 4, kernel_size=(3, 3), stride=(1, 1), padding=(1, 1), groups=4, bias=False)
            (project_in): Conv2d(64, 512, kernel_size=(1, 1), stride=(1, 1), bias=False)
            (dwconv): Conv2d(256, 256, kernel_size=(3, 3), stride=(1, 1), padding=(1, 1), groups=256, bias=False)
            (project_out): Conv2d(256, 64, kernel_size=(1, 1), stride=(1, 1), bias=False)
          )
        )
        (3): TransformerBlock(
          (norm1): LayerNorm(
            (body): WithBias_LayerNorm()
          )
          (attn): Attention(
            (qkv): Conv2d(64, 192, kernel_size=(1, 1), stride=(1, 1), bias=False)
            (qkv_dwconv): Conv2d(192, 192, kernel_size=(3, 3), stride=(1, 1), padding=(1, 1), groups=192, bias=False)
            (project_out): Conv2d(64, 64, kernel_size=(1, 1), stride=(1, 1), bias=False)
            (relu): ReLU()
            (att_ca): Conv2d(16, 32, kernel_size=(1, 1), stride=(1, 1), bias=False)
          )
          (norm2): LayerNorm(
            (body): WithBias_LayerNorm()
          )
          (ffn): FeedForward(
            (partial_conv3): Conv2d(4, 4, kernel_size=(3, 3), stride=(1, 1), padding=(1, 1), groups=4, bias=False)
            (project_in): Conv2d(64, 512, kernel_size=(1, 1), stride=(1, 1), bias=False)
            (dwconv): Conv2d(256, 256, kernel_size=(3, 3), stride=(1, 1), padding=(1, 1), groups=256, bias=False)
            (project_out): Conv2d(256, 64, kernel_size=(1, 1), stride=(1, 1), bias=False)
          )
        )
        (4): TransformerBlock(
          (norm1): LayerNorm(
            (body): WithBias_LayerNorm()
          )
          (attn): Attention(
            (qkv): Conv2d(64, 192, kernel_size=(1, 1), stride=(1, 1), bias=False)
            (qkv_dwconv): Conv2d(192, 192, kernel_size=(3, 3), stride=(1, 1), padding=(1, 1), groups=192, bias=False)
            (project_out): Conv2d(64, 64, kernel_size=(1, 1), stride=(1, 1), bias=False)
            (relu): ReLU()
            (att_ca): Conv2d(16, 32, kernel_size=(1, 1), stride=(1, 1), bias=False)
          )
          (norm2): LayerNorm(
            (body): WithBias_LayerNorm()
          )
          (ffn): FeedForward(
            (partial_conv3): Conv2d(4, 4, kernel_size=(3, 3), stride=(1, 1), padding=(1, 1), groups=4, bias=False)
            (project_in): Conv2d(64, 512, kernel_size=(1, 1), stride=(1, 1), bias=False)
            (dwconv): Conv2d(256, 256, kernel_size=(3, 3), stride=(1, 1), padding=(1, 1), groups=256, bias=False)
            (project_out): Conv2d(256, 64, kernel_size=(1, 1), stride=(1, 1), bias=False)
          )
        )
        (5): TransformerBlock(
          (norm1): LayerNorm(
            (body): WithBias_LayerNorm()
          )
          (attn): Attention(
            (qkv): Conv2d(64, 192, kernel_size=(1, 1), stride=(1, 1), bias=False)
            (qkv_dwconv): Conv2d(192, 192, kernel_size=(3, 3), stride=(1, 1), padding=(1, 1), groups=192, bias=False)
            (project_out): Conv2d(64, 64, kernel_size=(1, 1), stride=(1, 1), bias=False)
            (relu): ReLU()
            (att_ca): Conv2d(16, 32, kernel_size=(1, 1), stride=(1, 1), bias=False)
          )
          (norm2): LayerNorm(
            (body): WithBias_LayerNorm()
          )
          (ffn): FeedForward(
            (partial_conv3): Conv2d(4, 4, kernel_size=(3, 3), stride=(1, 1), padding=(1, 1), groups=4, bias=False)
            (project_in): Conv2d(64, 512, kernel_size=(1, 1), stride=(1, 1), bias=False)
            (dwconv): Conv2d(256, 256, kernel_size=(3, 3), stride=(1, 1), padding=(1, 1), groups=256, bias=False)
            (project_out): Conv2d(256, 64, kernel_size=(1, 1), stride=(1, 1), bias=False)
          )
        )
        (6): TransformerBlock(
          (norm1): LayerNorm(
            (body): WithBias_LayerNorm()
          )
          (attn): Attention(
            (qkv): Conv2d(64, 192, kernel_size=(1, 1), stride=(1, 1), bias=False)
            (qkv_dwconv): Conv2d(192, 192, kernel_size=(3, 3), stride=(1, 1), padding=(1, 1), groups=192, bias=False)
            (project_out): Conv2d(64, 64, kernel_size=(1, 1), stride=(1, 1), bias=False)
            (relu): ReLU()
            (att_ca): Conv2d(16, 32, kernel_size=(1, 1), stride=(1, 1), bias=False)
          )
          (norm2): LayerNorm(
            (body): WithBias_LayerNorm()
          )
          (ffn): FeedForward(
            (partial_conv3): Conv2d(4, 4, kernel_size=(3, 3), stride=(1, 1), padding=(1, 1), groups=4, bias=False)
            (project_in): Conv2d(64, 512, kernel_size=(1, 1), stride=(1, 1), bias=False)
            (dwconv): Conv2d(256, 256, kernel_size=(3, 3), stride=(1, 1), padding=(1, 1), groups=256, bias=False)
            (project_out): Conv2d(256, 64, kernel_size=(1, 1), stride=(1, 1), bias=False)
          )
        )
        (7): TransformerBlock(
          (norm1): LayerNorm(
            (body): WithBias_LayerNorm()
          )
          (attn): Attention(
            (qkv): Conv2d(64, 192, kernel_size=(1, 1), stride=(1, 1), bias=False)
            (qkv_dwconv): Conv2d(192, 192, kernel_size=(3, 3), stride=(1, 1), padding=(1, 1), groups=192, bias=False)
            (project_out): Conv2d(64, 64, kernel_size=(1, 1), stride=(1, 1), bias=False)
            (relu): ReLU()
            (att_ca): Conv2d(16, 32, kernel_size=(1, 1), stride=(1, 1), bias=False)
          )
          (norm2): LayerNorm(
            (body): WithBias_LayerNorm()
          )
          (ffn): FeedForward(
            (partial_conv3): Conv2d(4, 4, kernel_size=(3, 3), stride=(1, 1), padding=(1, 1), groups=4, bias=False)
            (project_in): Conv2d(64, 512, kernel_size=(1, 1), stride=(1, 1), bias=False)
            (dwconv): Conv2d(256, 256, kernel_size=(3, 3), stride=(1, 1), padding=(1, 1), groups=256, bias=False)
            (project_out): Conv2d(256, 64, kernel_size=(1, 1), stride=(1, 1), bias=False)
          )
        )
      )
    )
    (2): TransformerDBlock(
      (layers): Sequential(
        (0): TransformerBlock(
          (norm1): LayerNorm(
            (body): WithBias_LayerNorm()
          )
          (attn): Attention(
            (qkv): Conv2d(32, 96, kernel_size=(1, 1), stride=(1, 1), bias=False)
            (qkv_dwconv): Conv2d(96, 96, kernel_size=(3, 3), stride=(1, 1), padding=(1, 1), groups=96, bias=False)
            (project_out): Conv2d(32, 32, kernel_size=(1, 1), stride=(1, 1), bias=False)
            (relu): ReLU()
            (att_ca): Conv2d(16, 32, kernel_size=(1, 1), stride=(1, 1), bias=False)
          )
          (norm2): LayerNorm(
            (body): WithBias_LayerNorm()
          )
          (ffn): FeedForward(
            (partial_conv3): Conv2d(2, 2, kernel_size=(3, 3), stride=(1, 1), padding=(1, 1), groups=2, bias=False)
            (project_in): Conv2d(32, 256, kernel_size=(1, 1), stride=(1, 1), bias=False)
            (dwconv): Conv2d(128, 128, kernel_size=(3, 3), stride=(1, 1), padding=(1, 1), groups=128, bias=False)
            (project_out): Conv2d(128, 32, kernel_size=(1, 1), stride=(1, 1), bias=False)
          )
        )
        (1): TransformerBlock(
          (norm1): LayerNorm(
            (body): WithBias_LayerNorm()
          )
          (attn): Attention(
            (qkv): Conv2d(32, 96, kernel_size=(1, 1), stride=(1, 1), bias=False)
            (qkv_dwconv): Conv2d(96, 96, kernel_size=(3, 3), stride=(1, 1), padding=(1, 1), groups=96, bias=False)
            (project_out): Conv2d(32, 32, kernel_size=(1, 1), stride=(1, 1), bias=False)
            (relu): ReLU()
            (att_ca): Conv2d(16, 32, kernel_size=(1, 1), stride=(1, 1), bias=False)
          )
          (norm2): LayerNorm(
            (body): WithBias_LayerNorm()
          )
          (ffn): FeedForward(
            (partial_conv3): Conv2d(2, 2, kernel_size=(3, 3), stride=(1, 1), padding=(1, 1), groups=2, bias=False)
            (project_in): Conv2d(32, 256, kernel_size=(1, 1), stride=(1, 1), bias=False)
            (dwconv): Conv2d(128, 128, kernel_size=(3, 3), stride=(1, 1), padding=(1, 1), groups=128, bias=False)
            (project_out): Conv2d(128, 32, kernel_size=(1, 1), stride=(1, 1), bias=False)
          )
        )
        (2): TransformerBlock(
          (norm1): LayerNorm(
            (body): WithBias_LayerNorm()
          )
          (attn): Attention(
            (qkv): Conv2d(32, 96, kernel_size=(1, 1), stride=(1, 1), bias=False)
            (qkv_dwconv): Conv2d(96, 96, kernel_size=(3, 3), stride=(1, 1), padding=(1, 1), groups=96, bias=False)
            (project_out): Conv2d(32, 32, kernel_size=(1, 1), stride=(1, 1), bias=False)
            (relu): ReLU()
            (att_ca): Conv2d(16, 32, kernel_size=(1, 1), stride=(1, 1), bias=False)
          )
          (norm2): LayerNorm(
            (body): WithBias_LayerNorm()
          )
          (ffn): FeedForward(
            (partial_conv3): Conv2d(2, 2, kernel_size=(3, 3), stride=(1, 1), padding=(1, 1), groups=2, bias=False)
            (project_in): Conv2d(32, 256, kernel_size=(1, 1), stride=(1, 1), bias=False)
            (dwconv): Conv2d(128, 128, kernel_size=(3, 3), stride=(1, 1), padding=(1, 1), groups=128, bias=False)
            (project_out): Conv2d(128, 32, kernel_size=(1, 1), stride=(1, 1), bias=False)
          )
        )
        (3): TransformerBlock(
          (norm1): LayerNorm(
            (body): WithBias_LayerNorm()
          )
          (attn): Attention(
            (qkv): Conv2d(32, 96, kernel_size=(1, 1), stride=(1, 1), bias=False)
            (qkv_dwconv): Conv2d(96, 96, kernel_size=(3, 3), stride=(1, 1), padding=(1, 1), groups=96, bias=False)
            (project_out): Conv2d(32, 32, kernel_size=(1, 1), stride=(1, 1), bias=False)
            (relu): ReLU()
            (att_ca): Conv2d(16, 32, kernel_size=(1, 1), stride=(1, 1), bias=False)
          )
          (norm2): LayerNorm(
            (body): WithBias_LayerNorm()
          )
          (ffn): FeedForward(
            (partial_conv3): Conv2d(2, 2, kernel_size=(3, 3), stride=(1, 1), padding=(1, 1), groups=2, bias=False)
            (project_in): Conv2d(32, 256, kernel_size=(1, 1), stride=(1, 1), bias=False)
            (dwconv): Conv2d(128, 128, kernel_size=(3, 3), stride=(1, 1), padding=(1, 1), groups=128, bias=False)
            (project_out): Conv2d(128, 32, kernel_size=(1, 1), stride=(1, 1), bias=False)
          )
        )
        (4): TransformerBlock(
          (norm1): LayerNorm(
            (body): WithBias_LayerNorm()
          )
          (attn): Attention(
            (qkv): Conv2d(32, 96, kernel_size=(1, 1), stride=(1, 1), bias=False)
            (qkv_dwconv): Conv2d(96, 96, kernel_size=(3, 3), stride=(1, 1), padding=(1, 1), groups=96, bias=False)
            (project_out): Conv2d(32, 32, kernel_size=(1, 1), stride=(1, 1), bias=False)
            (relu): ReLU()
            (att_ca): Conv2d(16, 32, kernel_size=(1, 1), stride=(1, 1), bias=False)
          )
          (norm2): LayerNorm(
            (body): WithBias_LayerNorm()
          )
          (ffn): FeedForward(
            (partial_conv3): Conv2d(2, 2, kernel_size=(3, 3), stride=(1, 1), padding=(1, 1), groups=2, bias=False)
            (project_in): Conv2d(32, 256, kernel_size=(1, 1), stride=(1, 1), bias=False)
            (dwconv): Conv2d(128, 128, kernel_size=(3, 3), stride=(1, 1), padding=(1, 1), groups=128, bias=False)
            (project_out): Conv2d(128, 32, kernel_size=(1, 1), stride=(1, 1), bias=False)
          )
        )
        (5): TransformerBlock(
          (norm1): LayerNorm(
            (body): WithBias_LayerNorm()
          )
          (attn): Attention(
            (qkv): Conv2d(32, 96, kernel_size=(1, 1), stride=(1, 1), bias=False)
            (qkv_dwconv): Conv2d(96, 96, kernel_size=(3, 3), stride=(1, 1), padding=(1, 1), groups=96, bias=False)
            (project_out): Conv2d(32, 32, kernel_size=(1, 1), stride=(1, 1), bias=False)
            (relu): ReLU()
            (att_ca): Conv2d(16, 32, kernel_size=(1, 1), stride=(1, 1), bias=False)
          )
          (norm2): LayerNorm(
            (body): WithBias_LayerNorm()
          )
          (ffn): FeedForward(
            (partial_conv3): Conv2d(2, 2, kernel_size=(3, 3), stride=(1, 1), padding=(1, 1), groups=2, bias=False)
            (project_in): Conv2d(32, 256, kernel_size=(1, 1), stride=(1, 1), bias=False)
            (dwconv): Conv2d(128, 128, kernel_size=(3, 3), stride=(1, 1), padding=(1, 1), groups=128, bias=False)
            (project_out): Conv2d(128, 32, kernel_size=(1, 1), stride=(1, 1), bias=False)
          )
        )
        (6): TransformerBlock(
          (norm1): LayerNorm(
            (body): WithBias_LayerNorm()
          )
          (attn): Attention(
            (qkv): Conv2d(32, 96, kernel_size=(1, 1), stride=(1, 1), bias=False)
            (qkv_dwconv): Conv2d(96, 96, kernel_size=(3, 3), stride=(1, 1), padding=(1, 1), groups=96, bias=False)
            (project_out): Conv2d(32, 32, kernel_size=(1, 1), stride=(1, 1), bias=False)
            (relu): ReLU()
            (att_ca): Conv2d(16, 32, kernel_size=(1, 1), stride=(1, 1), bias=False)
          )
          (norm2): LayerNorm(
            (body): WithBias_LayerNorm()
          )
          (ffn): FeedForward(
            (partial_conv3): Conv2d(2, 2, kernel_size=(3, 3), stride=(1, 1), padding=(1, 1), groups=2, bias=False)
            (project_in): Conv2d(32, 256, kernel_size=(1, 1), stride=(1, 1), bias=False)
            (dwconv): Conv2d(128, 128, kernel_size=(3, 3), stride=(1, 1), padding=(1, 1), groups=128, bias=False)
            (project_out): Conv2d(128, 32, kernel_size=(1, 1), stride=(1, 1), bias=False)
          )
        )
        (7): TransformerBlock(
          (norm1): LayerNorm(
            (body): WithBias_LayerNorm()
          )
          (attn): Attention(
            (qkv): Conv2d(32, 96, kernel_size=(1, 1), stride=(1, 1), bias=False)
            (qkv_dwconv): Conv2d(96, 96, kernel_size=(3, 3), stride=(1, 1), padding=(1, 1), groups=96, bias=False)
            (project_out): Conv2d(32, 32, kernel_size=(1, 1), stride=(1, 1), bias=False)
            (relu): ReLU()
            (att_ca): Conv2d(16, 32, kernel_size=(1, 1), stride=(1, 1), bias=False)
          )
          (norm2): LayerNorm(
            (body): WithBias_LayerNorm()
          )
          (ffn): FeedForward(
            (partial_conv3): Conv2d(2, 2, kernel_size=(3, 3), stride=(1, 1), padding=(1, 1), groups=2, bias=False)
            (project_in): Conv2d(32, 256, kernel_size=(1, 1), stride=(1, 1), bias=False)
            (dwconv): Conv2d(128, 128, kernel_size=(3, 3), stride=(1, 1), padding=(1, 1), groups=128, bias=False)
            (project_out): Conv2d(128, 32, kernel_size=(1, 1), stride=(1, 1), bias=False)
          )
        )
      )
    )
  )
  (Convs): ModuleList(
    (0): BasicConv(
      (main): Sequential(
        (0): Conv2d(128, 64, kernel_size=(1, 1), stride=(1, 1))
        (1): ReLU(inplace=True)
      )
    )
    (1): BasicConv(
      (main): Sequential(
        (0): Conv2d(64, 32, kernel_size=(1, 1), stride=(1, 1))
        (1): ReLU(inplace=True)
      )
    )
  )
  (ConvsOut): ModuleList(
    (0): BasicConv(
      (main): Sequential(
        (0): Conv2d(128, 3, kernel_size=(3, 3), stride=(1, 1), padding=(1, 1))
      )
    )
    (1): BasicConv(
      (main): Sequential(
        (0): Conv2d(64, 3, kernel_size=(3, 3), stride=(1, 1), padding=(1, 1))
      )
    )
  )
  (AFFs): ModuleList(
    (0): AFF(
      (conv): Sequential(
        (0): BasicConv(
          (main): Sequential(
            (0): Conv2d(224, 32, kernel_size=(1, 1), stride=(1, 1))
            (1): ReLU(inplace=True)
          )
        )
        (1): BasicConv(
          (main): Sequential(
            (0): Conv2d(32, 32, kernel_size=(3, 3), stride=(1, 1), padding=(1, 1))
          )
        )
      )
    )
    (1): AFF(
      (conv): Sequential(
        (0): BasicConv(
          (main): Sequential(
            (0): Conv2d(224, 64, kernel_size=(1, 1), stride=(1, 1))
            (1): ReLU(inplace=True)
          )
        )
        (1): BasicConv(
          (main): Sequential(
            (0): Conv2d(64, 64, kernel_size=(3, 3), stride=(1, 1), padding=(1, 1))
          )
        )
      )
    )
  )
  (FAM1): FAM(
    (merge): BasicConv(
      (main): Sequential(
        (0): Conv2d(128, 128, kernel_size=(3, 3), stride=(1, 1), padding=(1, 1))
      )
    )
  )
  (SCM1): SCM(
    (main): Sequential(
      (0): BasicConv(
        (main): Sequential(
          (0): Conv2d(3, 32, kernel_size=(3, 3), stride=(1, 1), padding=(1, 1))
          (1): ReLU(inplace=True)
        )
      )
      (1): BasicConv(
        (main): Sequential(
          (0): Conv2d(32, 64, kernel_size=(1, 1), stride=(1, 1))
          (1): ReLU(inplace=True)
        )
      )
      (2): BasicConv(
        (main): Sequential(
          (0): Conv2d(64, 64, kernel_size=(3, 3), stride=(1, 1), padding=(1, 1))
          (1): ReLU(inplace=True)
        )
      )
      (3): BasicConv(
        (main): Sequential(
          (0): Conv2d(64, 125, kernel_size=(1, 1), stride=(1, 1))
          (1): ReLU(inplace=True)
        )
      )
    )
    (conv): BasicConv(
      (main): Sequential(
        (0): Conv2d(128, 128, kernel_size=(1, 1), stride=(1, 1))
      )
    )
  )
  (FAM2): FAM(
    (merge): BasicConv(
      (main): Sequential(
        (0): Conv2d(64, 64, kernel_size=(3, 3), stride=(1, 1), padding=(1, 1))
      )
    )
  )
  (SCM2): SCM(
    (main): Sequential(
      (0): BasicConv(
        (main): Sequential(
          (0): Conv2d(3, 16, kernel_size=(3, 3), stride=(1, 1), padding=(1, 1))
          (1): ReLU(inplace=True)
        )
      )
      (1): BasicConv(
        (main): Sequential(
          (0): Conv2d(16, 32, kernel_size=(1, 1), stride=(1, 1))
          (1): ReLU(inplace=True)
        )
      )
      (2): BasicConv(
        (main): Sequential(
          (0): Conv2d(32, 32, kernel_size=(3, 3), stride=(1, 1), padding=(1, 1))
          (1): ReLU(inplace=True)
        )
      )
      (3): BasicConv(
        (main): Sequential(
          (0): Conv2d(32, 61, kernel_size=(1, 1), stride=(1, 1))
          (1): ReLU(inplace=True)
        )
      )
    )
    (conv): BasicConv(
      (main): Sequential(
        (0): Conv2d(64, 64, kernel_size=(1, 1), stride=(1, 1))
      )
    )
  )
)
2025-07-10 03:21:18,265 INFO: Loss [SRN_loss] is created.
2025-07-10 03:21:18,265 INFO: Loss [Multi_FFT_loss] is created.
2025-07-10 03:21:18,266 INFO: Model [RestorationModel] is created.
/home/ubuntu13/anaconda3/envs/fewlens/lib/python3.9/site-packages/timm/models/layers/__init__.py:48: FutureWarning: Importing from timm.models.layers is deprecated, please import via timm.layers
…
